…
6S8Wm","executionInfo":{"status":"ok","timestamp":1706034074838,"user_tz":360,"elapsed":984,"user":{"displayName":"segu sivateja","userId":"12596460363968336131"}},"outputId":"c8b34194-df51-440d-96b4-2dfaf6549efe"},"execution_count":40,"outputs":[{"output_type":"execute_result","data":{"text/plain":["FasterRCNN(\n","  (transform): GeneralizedRCNNTransform(\n","      Normalize(mean=[0.485, 0.456, 0.406], std=[0.229, 0.224, 0.225])\n","      Resize(min_size=(800,), max_size=1333, mode='bilinear')\n","  )\n","  (backbone): BackboneWithFPN(\n","    (body): IntermediateLayerGetter(\n","      (conv1): Conv2d(3, 64, kernel_size=(7, 7), stride=(2, 2), padding=(3, 3), bias=False)\n","      (bn1): FrozenBatchNorm2d(64, eps=0.0)\n","      (relu): ReLU(inplace=True)\n","      (maxpool): MaxPool2d(kernel_size=3, stride=2, padding=1, dilation=1, ceil_mode=False)\n","      (layer1): Sequential(\n","        (0): Bottleneck(\n","          (conv1): Conv2d(64, 64, kernel_size=(1, 1), stride=(1, 1), bias=False)\n","          (bn1): FrozenBatchNorm2d(64, eps=0.0)\n","          (conv2): Conv2d(64, 64, kernel_size=(3, 3), stride=(1, 1), padding=(1, 1), bias=False)\n","          (bn2): FrozenBatchNorm2d(64, eps=0.0)\n","          (conv3): Conv2d(64, 256, kernel_size=(1, 1), stride=(1, 1), bias=False)\n","          (bn3): FrozenBatchNorm2d(256, eps=0.0)\n","          (relu): ReLU(inplace=True)\n","          (downsample): Sequential(\n","            (0): Conv2d(64, 256, kernel_size=(1, 1), stride=(1, 1), bias=False)\n","            (1): FrozenBatchNorm2d(256, eps=0.0)\n","          )\n","        )\n","        (1): Bottleneck(\n","          (conv1): Conv2d(256, 64, kernel_size=(1, 1), stride=(1, 1), bias=False)\n","          (bn1): FrozenBatchNorm2d(64, eps=0.0)\n","          (conv2): Conv2d(64, 64, kernel_size=(3, 3), stride=(1, 1), padding=(1, 1), bias=False)\n","          (bn2): FrozenBatchNorm2d(64, eps=0.0)\n","          (conv3): Conv2d(64, 256, kernel_size=(1, 1), stride=(1, 1), bias=False)\n","          (bn3): FrozenBatchNorm2d(256, eps=0.0)\n","          (relu): ReLU(inplace=True)\n","        )\n","        (2): Bottleneck(\n","          (conv1): Conv2d(256, 64, kernel_size=(1, 1), stride=(1, 1), bias=False)\n","          (bn1): FrozenBatchNorm2d(64, eps=0.0)\n","          (conv2): Conv2d(64, 64, kernel_size=(3, 3), stride=(1, 1), padding=(1, 1), bias=False)\n","          (bn2): FrozenBatchNorm2d(64, eps=0.0)\n","          (conv3): Conv2d(64, 256, kernel_size=(1, 1), stride=(1, 1), bias=False)\n","          (bn3): FrozenBatchNorm2d(256, eps=0.0)\n","          (relu): ReLU(inplace=True)\n","        )\n","      )\n","      (layer2): Sequential(\n","        (0): Bottleneck(\n","          (conv1): Conv2d(256, 128, kernel_size=(1, 1), stride=(1, 1), bias=False)\n","          (bn1): FrozenBatchNorm2d(128, eps=0.0)\n","          (conv2): Conv2d(128, 128, kernel_size=(3, 3), stride=(2, 2), padding=(1, 1), bias=False)\n","          (bn2): FrozenBatchNorm2d(128, eps=0.0)\n","          (conv3): Conv2d(128, 512, kernel_size=(1, 1), stride=(1, 1), bias=False)\n","          (bn3): FrozenBatchNorm2d(512, eps=0.0)\n","          (relu): ReLU(inplace=True)\n","          (downsample): Sequential(\n","            (0): Conv2d(256, 512, kernel_size=(1, 1), stride=(2, 2), bias=False)\n","            (1): FrozenBatchNorm2d(512, eps=0.0)\n","          )\n","        )\n","        (1): Bottleneck(\n","          (conv1): Conv2d(512, 128, kernel_size=(1, 1), stride=(1, 1), bias=False)\n","          (bn1): FrozenBatchNorm2d(128, eps=0.0)\n","          (conv2): Conv2d(128, 128, kernel_size=(3, 3), stride=(1, 1), padding=(1, 1), bias=False)\n","          (bn2): FrozenBatchNorm2d(128, eps=0.0)\n","          (conv3): Conv2d(128, 512, kernel_size=(1, 1), stride=(1, 1), bias=False)\n","          (bn3): FrozenBatchNorm2d(512, eps=0.0)\n","          (relu): ReLU(inplace=True)\n","        )\n","        (2): Bottleneck(\n","          (conv1): Conv2d(512, 128, kernel_size=(1, 1), stride=(1, 1), bias=False)\n","          (bn1): FrozenBatchNorm2d(128, eps=0.0)\n","          (conv2): Conv2d(128, 128, kernel_size=(3, 3), stride=(1, 1), padding=(1, 1), bias=False)\n","          (bn2): FrozenBatchNorm2d(128, eps=0.0)\n","          (conv3): Conv2d(128, 512, kernel_size=(1, 1), stride=(1, 1), bias=False)\n","          (bn3): FrozenBatchNorm2d(512, eps=0.0)\n","          (relu): ReLU(inplace=True)\n","        )\n","        (3): Bottleneck(\n","          (conv1): Conv2d(512, 128, kernel_size=(1, 1), stride=(1, 1), bias=False)\n","          (bn1): FrozenBatchNorm2d(128, eps=0.0)\n","          (conv2): Conv2d(128, 128, kernel_size=(3, 3), stride=(1, 1), padding=(1, 1), bias=False)\n","          (bn2): FrozenBatchNorm2d(128, eps=0.0)\n","          (conv3): Conv2d(128, 512, kernel_size=(1, 1), stride=(1, 1), bias=False)\n","          (bn3): FrozenBatchNorm2d(512, eps=0.0)\n","          (relu): ReLU(inplace=True)\n","        )\n","      )\n","      (layer3): Sequential(\n","        (0): Bottleneck(\n","          (conv1): Conv2d(512, 256, kernel_size=(1, 1), stride=(1, 1), bias=False)\n","          (bn1): FrozenBatchNorm2d(256, eps=0.0)\n","          (conv2): Conv2d(256, 256, kernel_size=(3, 3), stride=(2, 2), padding=(1, 1), bias=False)\n","          (bn2): FrozenBatchNorm2d(256, eps=0.0)\n","          (conv3): Conv2d(256, 1024, kernel_size=(1, 1), stride=(1, 1), bias=False)\n","          (bn3): FrozenBatchNorm2d(1024, eps=0.0)\n","          (relu): ReLU(inplace=True)\n","          (downsample): Sequential(\n","            (0): Conv2d(512, 1024, kernel_size=(1, 1), stride=(2, 2), bias=False)\n","            (1): FrozenBatchNorm2d(1024, eps=0.0)\n","          )\n","        )\n","        (1): Bottleneck(\n","          (conv1): Conv2d(1024, 256, kernel_size=(1, 1), stride=(1, 1), bias=False)\n","          (bn1): FrozenBatchNorm2d(256, eps=0.0)\n","          (conv2): Conv2d(256, 256, kernel_size=(3, 3), stride=(1, 1), padding=(1, 1), bias=False)\n","          (bn2): FrozenBatchNorm2d(256, eps=0.0)\n","          (conv3): Conv2d(256, 1024, kernel_size=(1, 1), stride=(1, 1), bias=False)\n","          (bn3): FrozenBatchNorm2d(1024, eps=0.0)\n","          (relu): ReLU(inplace=True)\n","        )\n","        (2): Bottleneck(\n","          (conv1): Conv2d(1024, 256, kernel_size=(1, 1), stride=(1, 1), bias=False)\n","          (bn1): FrozenBatchNorm2d(256, eps=0.0)\n","          (conv2): Conv2d(256, 256, kernel_size=(3, 3), stride=(1, 1), padding=(1, 1), bias=False)\n","          (bn2): FrozenBatchNorm2d(256, eps=0.0)\n","          (conv3): Conv2d(256, 1024, kernel_size=(1, 1), stride=(1, 1), bias=False)\n","          (bn3): FrozenBatchNorm2d(1024, eps=0.0)\n","          (relu): ReLU(inplace=True)\n","        )\n","        (3): Bottleneck(\n","          (conv1): Conv2d(1024, 256, kernel_size=(1, 1), stride=(1, 1), bias=False)\n","          (bn1): FrozenBatchNorm2d(256, eps=0.0)\n","          (conv2): Conv2d(256, 256, kernel_size=(3, 3), stride=(1, 1), padding=(1, 1), bias=False)\n","          (bn2): FrozenBatchNorm2d(256, eps=0.0)\n","          (conv3): Conv2d(256, 1024, kernel_size=(1, 1), stride=(1, 1), bias=False)\n","          (bn3): FrozenBatchNorm2d(1024, eps=0.0)\n","          (relu): ReLU(inplace=True)\n","        )\n","        (4): Bottleneck(\n","          (conv1): Conv2d(1024, 256, kernel_size=(1, 1), stride=(1, 1), bias=False)\n","          (bn1): FrozenBatchNorm2d(256, eps=0.0)\n","          (conv2): Conv2d(256, 256, kernel_size=(3, 3), stride=(1, 1), padding=(1, 1), bias=False)\n","          (bn2): FrozenBatchNorm2d(256, eps=0.0)\n","          (conv3): Conv2d(256, 1024, kernel_size=(1, 1), stride=(1, 1), bias=False)\n","          (bn3): FrozenBatchNorm2d(1024, eps=0.0)\n","          (relu): ReLU(inplace=True)\n","        )\n","        (5): Bottleneck(\n","          (conv1): Conv2d(1024, 256, kernel_size=(1, 1), stride=(1, 1), bias=False)\n","          (bn1): FrozenBatchNorm2d(256, eps=0.0)\n","          (conv2): Conv2d(256, 256, kernel_size=(3, 3), stride=(1, 1), padding=(1, 1), bias=False)\n","          (bn2): FrozenBatchNorm2d(256, eps=0.0)\n","          (conv3): Conv2d(256, 1024, kernel_size=(1, 1), stride=(1, 1), bias=False)\n","          (bn3): FrozenBatchNorm2d(1024, eps=0.0)\n","          (relu): ReLU(inplace=True)\n","        )\n","      )\n","      (layer4): Sequential(\n","        (0): Bottleneck(\n","          (conv1): Conv2d(1024, 512, kernel_size=(1, 1), stride=(1, 1), bias=False)\n","          (bn1): FrozenBatchNorm2d(512, eps=0.0)\n","          (conv2): Conv2d(512, 512, kernel_size=(3, 3), stride=(2, 2), padding=(1, 1), bias=False)\n","          (bn2): FrozenBatchNorm2d(512, eps=0.0)\n","          (conv3): Conv2d(512, 2048, kernel_size=(1, 1), stride=(1, 1), bias=False)\n","          (bn3): FrozenBatchNorm2d(2048, eps=0.0)\n","          (relu): ReLU(inplace=True)\n","          (downsample): Sequential(\n","            (0): Conv2d(1024, 2048, kernel_size=(1, 1), stride=(2, 2), bias=False)\n","            (1): FrozenBatchNorm2d(2048, eps=0.0)\n","          )\n","        )\n","        (1): Bottleneck(\n","          (conv1): Conv2d(2048, 512, kernel_size=(1, 1), stride=(1, 1), bias=False)\n","          (bn1): FrozenBatchNorm2d(512, eps=0.0)\n","          (conv2): Conv2d(512, 512, kernel_size=(3, 3), stride=(1, 1), padding=(1, 1), bias=False)\n","          (bn2): FrozenBatchNorm2d(512, eps=0.0)\n","          (conv3): Conv2d(512, 2048, kernel_size=(1, 1), stride=(1, 1), bias=False)\n","          (bn3): FrozenBatchNorm2d(2048, eps=0.0)\n","          (relu): ReLU(inplace=True)\n","        )\n","        (2): Bottleneck(\n","          (conv1): Conv2d(2048, 512, kernel_size=(1, 1), stride=(1, 1), bias=False)\n","          (bn1): FrozenBatchNorm2d(512, eps=0.0)\n","          (conv2): Conv2d(512, 512, kernel_size=(3, 3), stride=(1, 1), padding=(1, 1), bias=False)\n","          (bn2): FrozenBatchNorm2d(512, eps=0.0)\n","          (conv3): Conv2d(512, 2048, kernel_size=(1, 1), stride=(1, 1), bias=False)\n","          (bn3): FrozenBatchNorm2d(2048, eps=0.0)\n","          (relu): ReLU(inplace=True)\n","        )\n","      )\n","    )\n","    (fpn): FeaturePyramidNetwork(\n","      (inner_blocks): ModuleList(\n","        (0): Conv2dNormActivation(\n","          (0): Conv2d(256, 256, kernel_size=(1, 1), stride=(1, 1))\n","        )\n","        (1): Conv2dNormActivation(\n","          (0): Conv2d(512, 256, kernel_size=(1, 1), stride=(1, 1))\n","        )\n","        (2): Conv2dNormActivation(\n","          (0): Conv2d(1024, 256, kernel_size=(1, 1), stride=(1, 1))\n","        )\n","        (3): Conv2dNormActivation(\n","          (0): Conv2d(2048, 256, kernel_size=(1, 1), stride=(1, 1))\n","        )\n","      )\n","      (layer_blocks): ModuleList(\n","        (0-3): 4 x Conv2dNormActivation(\n","          (0): Conv2d(256, 256, kernel_size=(3, 3), stride=(1, 1), padding=(1, 1))\n","        )\n","      )\n","      (extra_blocks): LastLevelMaxPool()\n","    )\n","  )\n","  (rpn): RegionProposalNetwork(\n","    (anchor_generator): AnchorGenerator()\n","    (head): RPNHead(\n","      (conv): Sequential(\n","        (0): Conv2dNormActivation(\n","          (0): Conv2d(256, 256, kernel_size=(3, 3), stride=(1, 1), padding=(1, 1))\n","          (1): ReLU(inplace=True)\n","        )\n","      )\n","      (cls_logits): Conv2d(256, 3, kernel_size=(1, 1), stride=(1, 1))\n","      (bbox_pred): Conv2d(256, 12, kernel_size=(1, 1), stride=(1, 1))\n","    )\n","  )\n","  (roi_heads): RoIHeads(\n","    (box_roi_pool): MultiScaleRoIAlign(featmap_names=['0', '1', '2', '3'], output_size=(7, 7), sampling_ratio=2)\n","    (box_head): TwoMLPHead(\n","      (fc6): Linear(in_features=12544, out_features=1024, bias=True)\n","      (fc7): Linear(in_features=1024, out_features=1024, bias=True)\n","    )\n","    (box_predictor): FastRCNNPredictor(\n","      (cls_score): Linear(in_features=1024, out_features=2, bias=True)\n","      (bbox_pred): Linear(in_features=1024, out_features=8, bias=True)\n","    )\n","  )\n",")"]},"metadata":{},"execution_count":40}]},{"cell_type":"code","source":["for params in model.children():\n","    print(params)"],"metadata":{"colab":{"base_uri":"https://localhost:8080/"},"id":"LKfNNS_dS-6k","executionInfo":{"status":"ok","timestamp":1706034076723,"user_tz":360,"elapsed":203,"user":{"displayName":"segu sivateja","userId":"12596460363968336131"}},"outputId":"e11d896b-a1b9-4a80-f103-95df5bb4f5fc"},"execution_count":41,"outputs":[{"output_type":"stream","name":"stdout","text":["GeneralizedRCNNTransform(\n","    Normalize(mean=[0.485, 0.456, 0.406], std=[0.229, 0.224, 0.225])\n","    Resize(min_size=(800,), max_size=1333, mode='bilinear')\n",")\n","BackboneWithFPN(\n","  (body): IntermediateLayerGetter(\n","    (conv1): Conv2d(3, 64, kernel_size=(7, 7), stride=(2, 2), padding=(3, 3), bias=False)\n","    (bn1): FrozenBatchNorm2d(64, eps=0.0)\n","    (relu): ReLU(inplace=True)\n","    (maxpool): MaxPool2d(kernel_size=3, stride=2, padding=1, dilation=1, ceil_mode=False)\n","    (layer1): Sequential(\n","      (0): Bottleneck(\n","        (conv1): Conv2d(64, 64, kernel_size=(1, 1), stride=(1, 1), bias=False)\n","        (bn1): FrozenBatchNorm2d(64, eps=0.0)\n","        (conv2): Conv2d(64, 64, kernel_size=(3, 3), stride=(1, 1), padding=(1, 1), bias=False)\n","        (bn2): FrozenBatchNorm2d(64, eps=0.0)\n","        (conv3): Conv2d(64, 256, kernel_size=(1, 1), stride=(1, 1), bias=False)\n","        (bn3): FrozenBatchNorm2d(256, eps=0.0)\n","        (relu): ReLU(inplace=True)\n","        (downsample): Sequential(\n","          (0): Conv2d(64, 256, kernel_size=(1, 1), stride=(1, 1), bias=False)\n","          (1): FrozenBatchNorm2d(256, eps=0.0)\n","        )\n","      )\n","      (1): Bottleneck(\n","        (conv1): Conv2d(256, 64, kernel_size=(1, 1), stride=(1, 1), bias=False)\n","        (bn1): FrozenBatchNorm2d(64, eps=0.0)\n","        (conv2): Conv2d(64, 64, kernel_size=(3, 3), stride=(1, 1), padding=(1, 1), bias=False)\n","        (bn2): FrozenBatchNorm2d(64, eps=0.0)\n","        (conv3): Conv2d(64, 256, kernel_size=(1, 1), stride=(1, 1), bias=False)\n","        (bn3): FrozenBatchNorm2d(256, eps=0.0)\n","        (relu): ReLU(inplace=True)\n","      )\n","      (2): Bottleneck(\n","        (conv1): Conv2d(256, 64, kernel_size=(1, 1), stride=(1, 1), bias=False)\n","        (bn1): FrozenBatchNorm2d(64, eps=0.0)\n","        (conv2): Conv2d(64, 64, kernel_size=(3, 3), stride=(1, 1), padding=(1, 1), bias=False)\n","        (bn2): FrozenBatchNorm2d(64, eps=0.0)\n","        (conv3): Conv2d(64, 256, kernel_size=(1, 1), stride=(1, 1), bias=False)\n","        (bn3): FrozenBatchNorm2d(256, eps=0.0)\n","        (relu): ReLU(inplace=True)\n","      )\n","    )\n","    (layer2): Sequential(\n","      (0): Bottleneck(\n","        (conv1): Conv2d(256, 128, kernel_size=(1, 1), stride=(1, 1), bias=False)\n","        (bn1): FrozenBatchNorm2d(128, eps=0.0)\n","        (conv2): Conv2d(128, 128, kernel_size=(3, 3), stride=(2, 2), padding=(1, 1), bias=False)\n","        (bn2): FrozenBatchNorm2d(128, eps=0.0)\n","        (conv3): Conv2d(128, 512, kernel_size=(1, 1), stride=(1, 1), bias=False)\n","        (bn3): FrozenBatchNorm2d(512, eps=0.0)\n","        (relu): ReLU(inplace=True)\n","        (downsample): Sequential(\n","          (0): Conv2d(256, 512, kernel_size=(1, 1), stride=(2, 2), bias=False)\n","          (1): FrozenBatchNorm2d(512, eps=0.0)\n","        )\n","      )\n","      (1): Bottleneck(\n","        (conv1): Conv2d(512, 128, kernel_size=(1, 1), stride=(1, 1), bias=False)\n","        (bn1): FrozenBatchNorm2d(128, eps=0.0)\n","        (conv2): Conv2d(128, 128, kernel_size=(3, 3), stride=(1, 1), padding=(1, 1), bias=False)\n","        (bn2): FrozenBatchNorm2d(128, eps=0.0)\n","        (conv3): Conv2d(128, 512, kernel_size=(1, 1), stride=(1, 1), bias=False)\n","        (bn3): FrozenBatchNorm2d(512, eps=0.0)\n","        (relu): ReLU(inplace=True)\n","      )\n","      (2): Bottleneck(\n","        (conv1): Conv2d(512, 128, kernel_size=(1, 1), stride=(1, 1), bias=False)\n","        (bn1): FrozenBatchNorm2d(128, eps=0.0)\n","        (conv2): Conv2d(128, 128, kernel_size=(3, 3), stride=(1, 1), padding=(1, 1), bias=False)\n","        (bn2): FrozenBatchNorm2d(128, eps=0.0)\n","        (conv3): Conv2d(128, 512, kernel_size=(1, 1), stride=(1, 1), bias=False)\n","        (bn3): FrozenBatchNorm2d(512, eps=0.0)\n","        (relu): ReLU(inplace=True)\n","      )\n","      (3): Bottleneck(\n","        (conv1): Conv2d(512, 128, kernel_size=(1, 1), stride=(1, 1), bias=False)\n","        (bn1): FrozenBatchNorm2d(128, eps=0.0)\n","        (conv2): Conv2d(128, 128, kernel_size=(3, 3), stride=(1, 1), padding=(1, 1), bias=False)\n","        (bn2): FrozenBatchNorm2d(128, eps=0.0)\n","        (conv3): Conv2d(128, 512, kernel_size=(1, 1), stride=(1, 1), bias=False)\n","        (bn3): FrozenBatchNorm2d(512, eps=0.0)\n","        (relu): ReLU(inplace=True)\n","      )\n","    )\n","    (layer3): Sequential(\n","      (0): Bottleneck(\n","        (conv1): Conv2d(512, 256, kernel_size=(1, 1), stride=(1, 1), bias=False)\n","        (bn1): FrozenBatchNorm2d(256, eps=0.0)\n","        (conv2): Conv2d(256, 256, kernel_size=(3, 3), stride=(2, 2), padding=(1, 1), bias=False)\n","        (bn2): FrozenBatchNorm2d(256, eps=0.0)\n","        (conv3): Conv2d(256, 1024, kernel_size=(1, 1), stride=(1, 1), bias=False)\n","        (bn3): FrozenBatchNorm2d(1024, eps=0.0)\n","        (relu): ReLU(inplace=True)\n","        (downsample): Sequential(\n","          (0): Conv2d(512, 1024, kernel_size=(1, 1), stride=(2, 2), bias=False)\n","          (1): FrozenBatchNorm2d(1024, eps=0.0)\n","        )\n","      )\n","      (1): Bottleneck(\n","        (conv1): Conv2d(1024, 256, kernel_size=(1, 1), stride=(1, 1), bias=False)\n","        (bn1): FrozenBatchNorm2d(256, eps=0.0)\n","        (conv2): Conv2d(256, 256, kernel_size=(3, 3), stride=(1, 1), padding=(1, 1), bias=False)\n","        (bn2): FrozenBatchNorm2d(256, eps=0.0)\n","        (conv3): Conv2d(256, 1024, kernel_size=(1, 1), stride=(1, 1), bias=False)\n","        (bn3): FrozenBatchNorm2d(1024, eps=0.0)\n","        (relu): ReLU(inplace=True)\n","      )\n","      (2): Bottleneck(\n","        (conv1): Conv2d(1024, 256, kernel_size=(1, 1), stride=(1, 1), bias=False)\n","        (bn1): FrozenBatchNorm2d(256, eps=0.0)\n","        (conv2): Conv2d(256, 256, kernel_size=(3, 3), stride=(1, 1), padding=(1, 1), bias=False)\n","        (bn2): FrozenBatchNorm2d(256, eps=0.0)\n","        (conv3): Conv2d(256, 1024, kernel_size=(1, 1), stride=(1, 1), bias=False)\n","        (bn3): FrozenBatchNorm2d(1024, eps=0.0)\n","        (relu): ReLU(inplace=True)\n","      )\n","      (3): Bottleneck(\n","        (conv1): Conv2d(1024, 256, kernel_size=(1, 1), stride=(1, 1), bias=False)\n","        (bn1): FrozenBatchNorm2d(256, eps=0.0)\n","        (conv2): Conv2d(256, 256, kernel_size=(3, 3), stride=(1, 1), padding=(1, 1), bias=False)\n","        (bn2): FrozenBatchNorm2d(256, eps=0.0)\n","        (conv3): Conv2d(256, 1024, kernel_size=(1, 1), stride=(1, 1), bias=False)\n","        (bn3): FrozenBatchNorm2d(1024, eps=0.0)\n","        (relu): ReLU(inplace=True)\n","      )\n","      (4): Bottleneck(\n","        (conv1): Conv2d(1024, 256, kernel_size=(1, 1), stride=(1, 1), bias=False)\n","        (bn1): FrozenBatchNorm2d(256, eps=0.0)\n","        (conv2): Conv2d(256, 256, kernel_size=(3, 3), stride=(1, 1), padding=(1, 1), bias=False)\n","        (bn2): FrozenBatchNorm2d(256, eps=0.0)\n","        (conv3): Conv2d(256, 1024, kernel_size=(1, 1), stride=(1, 1), bias=False)\n","        (bn3): FrozenBatchNorm2d(1024, eps=0.0)\n","        (relu): ReLU(inplace=True)\n","      )\n","      (5): Bottleneck(\n","        (conv1): Conv2d(1024, 256, kernel_size=(1, 1), stride=(1, 1), bias=False)\n","        (bn1): FrozenBatchNorm2d(256, eps=0.0)\n","        (conv2): Conv2d(256, 256, kernel_size=(3, 3), stride=(1, 1), padding=(1, 1), bias=False)\n","        (bn2): FrozenBatchNorm2d(256, eps=0.0)\n","        (conv3): Conv2d(256, 1024, kernel_size=(1, 1), stride=(1, 1), bias=False)\n","        (bn3): FrozenBatchNorm2d(1024, eps=0.0)\n","        (relu): ReLU(inplace=True)\n","      )\n","    )\n","    (layer4): Sequential(\n","      (0): Bottleneck(\n","        (conv1): Conv2d(1024, 512, kernel_size=(1, 1), stride=(1, 1), bias=False)\n","        (bn1): FrozenBatchNorm2d(512, eps=0.0)\n","        (conv2): Conv2d(512, 512, kernel_size=(3, 3), stride=(2, 2), padding=(1, 1), bias=False)\n","        (bn2): FrozenBatchNorm2d(512, eps=0.0)\n","        (conv3): Conv2d(512, 2048, kernel_size=(1, 1), stride=(1, 1), bias=False)\n","        (bn3): FrozenBatchNorm2d(2048, eps=0.0)\n","        (relu): ReLU(inplace=True)\n","        (downsample): Sequential(\n","          (0): Conv2d(1024, 2048, kernel_size=(1, 1), stride=(2, 2), bias=False)\n","          (1): FrozenBatchNorm2d(2048, eps=0.0)\n","        )\n","      )\n","      (1): Bottleneck(\n","        (conv1): Conv2d(2048, 512, kernel_size=(1, 1), stride=(1, 1), bias=False)\n","        (bn1): FrozenBatchNorm2d(512, eps=0.0)\n","        (conv2): Conv2d(512, 512, kernel_size=(3, 3), stride=(1, 1), padding=(1, 1), bias=False)\n","        (bn2): FrozenBatchNorm2d(512, eps=0.0)\n","        (conv3): Conv2d(512, 2048, kernel_size=(1, 1), stride=(1, 1), bias=False)\n","        (bn3): FrozenBatchNorm2d(2048, eps=0.0)\n","        (relu): ReLU(inplace=True)\n","      )\n","      (2): Bottleneck(\n","        (conv1): Conv2d(2048, 512, kernel_size=(1, 1), stride=(1, 1), bias=False)\n","        (bn1): FrozenBatchNorm2d(512, eps=0.0)\n","        (conv2): Conv2d(512, 512, kernel_size=(3, 3), stride=(1, 1), padding=(1, 1), bias=False)\n","        (bn2): FrozenBatchNorm2d(512, eps=0.0)\n","        (conv3): Conv2d(512, 2048, kernel_size=(1, 1), stride=(1, 1), bias=False)\n","        (bn3): FrozenBatchNorm2d(2048, eps=0.0)\n","        (relu): ReLU(inplace=True)\n","      )\n","    )\n","  )\n","  (fpn): FeaturePyramidNetwork(\n","    (inner_blocks): ModuleList(\n","      (0): Conv2dNormActivation(\n","        (0): Conv2d(256, 256, kernel_size=(1, 1), stride=(1, 1))\n","      )\n","      (1): Conv2dNormActivation(\n","        (0): Conv2d(512, 256, kernel_size=(1, 1), stride=(1, 1))\n","      )\n","      (2): Conv2dNormActivation(\n","        (0): Conv2d(1024, 256, kernel_size=(1, 1), stride=(1, 1))\n","      )\n","      (3): Conv2dNormActivation(\n","        (0): Conv2d(2048, 256, kernel_size=(1, 1), stride=(1, 1))\n","      )\n","    )\n","    (layer_blocks): ModuleList(\n","      (0-3): 4 x Conv2dNormActivation(\n","        (0): Conv2d(256, 256, kernel_size=(3, 3), stride=(1, 1), padding=(1, 1))\n","      )\n","    )\n","    (extra_blocks): LastLevelMaxPool()\n","  )\n",")\n","RegionProposalNetwork(\n","  (anchor_generator): AnchorGenerator()\n","  (head): RPNHead(\n","    (conv): Sequential(\n","      (0): Conv2dNormActivation(\n","        (0): Conv2d(256, 256, kernel_size=(3, 3), stride=(1, 1), padding=(1, 1))\n","        (1): ReLU(inplace=True)\n","      )\n","    )\n","    (cls_logits): Conv2d(256, 3, kernel_size=(1, 1), stride=(1, 1))\n","    (bbox_pred): Conv2d(256, 12, kernel_size=(1, 1), stride=(1, 1))\n","  )\n",")\n","RoIHeads(\n","  (box_roi_pool): MultiScaleRoIAlign(featmap_names=['0', '1', '2', '3'], output_size=(7, 7), sampling_ratio=2)\n","  (box_head): TwoMLPHead(\n","    (fc6): Linear(in_features=12544, out_features=1024, bias=True)\n","    (fc7): Linear(in_features=1024, out_features=1024, bias=True)\n","  )\n","  (box_predictor): FastRCNNPredictor(\n","    (cls_score): Linear(in_features=1024, out_features=2, bias=True)\n","    (bbox_pred): Linear(in_features=1024, out_features=8, bias=True)\n","  )\n",")\n"]}]},{"cell_type":"code","source":["classification_head=list(model.children())[-2:]\n","\n","for children in list(model.children())[:-2]:\n","    for params in children.parameters():\n","        params.requires_grad=False\n","\n","parameters=[]\n","for heads in classification_head:\n","    for params in heads.parameters():\n","        pa
…
 threshold=0.0001)\n","\n","\n","print(classification_head)"],"metadata":{"colab":{"base_uri":"https://localhost:8080/"},"id":"nSuWK_qVTDTU","executionInfo":{"status":"ok","timestamp":1706034077776,"user_tz":360,"elapsed":147,"user":{"displayName":"segu sivateja","userId":"12596460363968336131"}},"outputId":"cdb3081f-3850-4e8b-fa4a-1085ac7e37c1"},"execution_count":42,"outputs":[{"output_type":"stream","name":"stdout","text":["[RegionProposalNetwork(\n","  (anchor_generator): AnchorGenerator()\n","  (head): RPNHead(\n","    (conv): Sequential(\n","      (0): Conv2dNormActivation(\n","        (0): Conv2d(256, 256, kernel_size=(3, 3), stride=(1, 1), padding=(1, 1))\n","        (1): ReLU(inplace=True)\n","      )\n","    )\n","    (cls_logits): Conv2d(256, 3, kernel_size=(1, 1), stride=(1, 1))\n","    (bbox_pred): Conv2d(256, 12, kernel_size=(1, 1), stride=(1, 1))\n","  )\n","), RoIHeads(\n","  (box_roi_pool): MultiScaleRoIAlign(featmap_names=['0', '1', '2', '3'], output_size=(7, 7), sampling_ratio=2)\n","  (box_head): TwoMLPHead(\n","    (fc6): Linear(in_features=12544, out_features=1024, bias=True)\n","    (fc7): Linear(in_features=1024, out_features=1024, bias=True)\n","  )\n","  (box_predictor): FastRCNNPredictor(\n","    (cls_score): Linear(in_features=1024, out_features=2, bias=True)\n","    (bbox_pred): Linear(in_features=1024, out_features=8, bias=True)\n","  )\n",")]\n"]}]},{"cell_type":"code","source":["def get_lr(optimizer):\n","    for params in optimizer.param_groups:\n","        return params[\"lr\"]"],"metadata":{"id":"CiweiG5ITID-","executionInfo":{"status":"ok","timestamp":1706034078689,"user_tz":360,"elapsed":114,"user":{"displayName":"segu sivateja","userId":"12596460363968336131"}}},"execut
…
Ne8bY","executionInfo":{"status":"ok","timestamp":1706038084670,"user_tz":360,"elapsed":311,"user":{"displayName":"segu sivateja","userId":"12596460363968336131"}},"outputId":"40293d19-1b94-4496-d218-fb0177517cab"},"execution_count":47,"outputs":[{"output_type":"execute_result","data":{"text/plain":["FasterRCNN(\n","  (transform): GeneralizedRCNNTransform(\n","      Normalize(mean=[0.485, 0.456, 0.406], std=[0.229, 0.224, 0.225])\n","      Resize(min_size=(800,), max_size=1333, mode='bilinear')\n","  )\n","  (backbone): BackboneWithFPN(\n","    (body): IntermediateLayerGetter(\n","      (conv1): Conv2d(3, 64, kernel_size=(7, 7), stride=(2, 2), padding=(3, 3), bias=False)\n","      (bn1): FrozenBatchNorm2d(64, eps=0.0)\n","      (relu): ReLU(inplace=True)\n","      (maxpool): MaxPool2d(kernel_size=3, stride=2, padding=1, dilation=1, ceil_mode=False)\n","      (layer1): Sequential(\n","        (0): Bottleneck(\n","          (conv1): Conv2d(64, 64, kernel_size=(1, 1), stride=(1, 1), bias=False)\n","          (bn1): FrozenBatchNorm2d(64, eps=0.0)\n","          (conv2): Conv2d(64, 64, kernel_size=(3, 3), stride=(1, 1), padding=(1, 1), bias=False)\n","          (bn2): FrozenBatchNorm2d(64, eps=0.0)\n","          (conv3): Conv2d(64, 256, kernel_size=(1, 1), stride=(1, 1), bias=False)\n","          (bn3): FrozenBatchNorm2d(256, eps=0.0)\n","          (relu): ReLU(inplace=True)\n","          (downsample): Sequential(\n","            (0): Conv2d(64, 256, kernel_size=(1, 1), stride=(1, 1), bias=False)\n","            (1): FrozenBatchNorm2d(256, eps=0.0)\n","          )\n","        )\n","        (1): Bottleneck(\n","          (conv1): Conv2d(256, 64, kernel_size=(1, 1), stride=(1, 1), bias=False)\n","          (bn1): FrozenBatchNorm2d(64, eps=0.0)\n","          (conv2): Conv2d(64, 64, kernel_size=(3, 3), stride=(1, 1), padding=(1, 1), bias=False)\n","          (bn2): FrozenBatchNorm2d(64, eps=0.0)\n","          (conv3): Conv2d(64, 256, kernel_size=(1, 1), stride=(1, 1), bias=False)\n","          (bn3): FrozenBatchNorm2d(256, eps=0.0)\n","          (relu): ReLU(inplace=True)\n","        )\n","        (2): Bottleneck(\n","          (conv1): Conv2d(256, 64, kernel_size=(1, 1), stride=(1, 1), bias=False)\n","          (bn1): FrozenBatchNorm2d(64, eps=0.0)\n","          (conv2): Conv2d(64, 64, kernel_size=(3, 3), stride=(1, 1), padding=(1, 1), bias=False)\n","          (bn2): FrozenBatchNorm2d(64, eps=0.0)\n","          (conv3): Conv2d(64, 256, kernel_size=(1, 1), stride=(1, 1), bias=False)\n","          (bn3): FrozenBatchNorm2d(256, eps=0.0)\n","          (relu): ReLU(inplace=True)\n","        )\n","      )\n","      (layer2): Sequential(\n","        (0): Bottleneck(\n","          (conv1): Conv2d(256, 128, kernel_size=(1, 1), stride=(1, 1), bias=False)\n","          (bn1): FrozenBatchNorm2d(128, eps=0.0)\n","          (conv2): Conv2d(128, 128, kernel_size=(3, 3), stride=(2, 2), padding=(1, 1), bias=False)\n","          (bn2): FrozenBatchNorm2d(128, eps=0.0)\n","          (conv3): Conv2d(128, 512, kernel_size=(1, 1), stride=(1, 1), bias=False)\n","          (bn3): FrozenBatchNorm2d(512, eps=0.0)\n","          (relu): ReLU(inplace=True)\n","          (downsample): Sequential(\n","            (0): Conv2d(256, 512, kernel_size=(1, 1), stride=(2, 2), bias=False)\n","            (1): FrozenBatchNorm2d(512, eps=0.0)\n","          )\n","        )\n","        (1): Bottleneck(\n","          (conv1): Conv2d(512, 128, kernel_size=(1, 1), stride=(1, 1), bias=False)\n","          (bn1): FrozenBatchNorm2d(128, eps=0.0)\n","          (conv2): Conv2d(128, 128, kernel_size=(3, 3), stride=(1, 1), padding=(1, 1), bias=False)\n","          (bn2): FrozenBatchNorm2d(128, eps=0.0)\n","          (conv3): Conv2d(128, 512, kernel_size=(1, 1), stride=(1, 1), bias=False)\n","          (bn3): FrozenBatchNorm2d(512, eps=0.0)\n","          (relu): ReLU(inplace=True)\n","        )\n","        (2): Bottleneck(\n","          (conv1): Conv2d(512, 128, kernel_size=(1, 1), stride=(1, 1), bias=False)\n","          (bn1): FrozenBatchNorm2d(128, eps=0.0)\n","          (conv2): Conv2d(128, 128, kernel_size=(3, 3), stride=(1, 1), padding=(1, 1), bias=False)\n","          (bn2): FrozenBatchNorm2d(128, eps=0.0)\n","          (conv3): Conv2d(128, 512, kernel_size=(1, 1), stride=(1, 1), bias=False)\n","          (bn3): FrozenBatchNorm2d(512, eps=0.0)\n","          (relu): ReLU(inplace=True)\n","        )\n","        (3): Bottleneck(\n","          (conv1): Conv2d(512, 128, kernel_size=(1, 1), stride=(1, 1), bias=False)\n","          (bn1): FrozenBatchNorm2d(128, eps=0.0)\n","          (conv2): Conv2d(128, 128, kernel_size=(3, 3), stride=(1, 1), padding=(1, 1), bias=False)\n","          (bn2): FrozenBatchNorm2d(128, eps=0.0)\n","          (conv3): Conv2d(128, 512, kernel_size=(1, 1), stride=(1, 1), bias=False)\n","          (bn3): FrozenBatchNorm2d(512, eps=0.0)\n","          (relu): ReLU(inplace=True)\n","        )\n","      )\n","      (layer3): Sequential(\n","        (0): Bottleneck(\n","          (conv1): Conv2d(512, 256, kernel_size=(1, 1), stride=(1, 1), bias=False)\n","          (bn1): FrozenBatchNorm2d(256, eps=0.0)\n","          (conv2): Conv2d(256, 256, kernel_size=(3, 3), stride=(2, 2), padding=(1, 1), bias=False)\n","          (bn2): FrozenBatchNorm2d(256, eps=0.0)\n","          (conv3): Conv2d(256, 1024, kernel_size=(1, 1), stride=(1, 1), bias=False)\n","          (bn3): FrozenBatchNorm2d(1024, eps=0.0)\n","          (relu): ReLU(inplace=True)\n","          (downsample): Sequential(\n","            (0): Conv2d(512, 1024, kernel_size=(1, 1), stride=(2, 2), bias=False)\n","            (1): FrozenBatchNorm2d(1024, eps=0.0)\n","          )\n","        )\n","        (1): Bottleneck(\n","          (conv1): Conv2d(1024, 256, kernel_size=(1, 1), stride=(1, 1), bias=False)\n","          (bn1): FrozenBatchNorm2d(256, eps=0.0)\n","          (conv2): Conv2d(256, 256, kernel_size=(3, 3), stride=(1, 1), padding=(1, 1), bias=False)\n","          (bn2): FrozenBatchNorm2d(256, eps=0.0)\n","          (conv3): Conv2d(256, 1024, kernel_size=(1, 1), stride=(1, 1), bias=False)\n","          (bn3): FrozenBatchNorm2d(1024, eps=0.0)\n","          (relu): ReLU(inplace=True)\n","        )\n","        (2): Bottleneck(\n","          (conv1): Conv2d(1024, 256, kernel_size=(1, 1), stride=(1, 1), bias=False)\n","          (bn1): FrozenBatchNorm2d(256, eps=0.0)\n","          (conv2): Conv2d(256, 256, kernel_size=(3, 3), stride=(1, 1), padding=(1, 1), bias=False)\n","          (bn2): FrozenBatchNorm2d(256, eps=0.0)\n","          (conv3): Conv2d(256, 1024, kernel_size=(1, 1), stride=(1, 1), bias=False)\n","          (bn3): FrozenBatchNorm2d(1024, eps=0.0)\n","          (relu): ReLU(inplace=True)\n","        )\n","        (3): Bottleneck(\n","          (conv1): Conv2d(1024, 256, kernel_size=(1, 1), stride=(1, 1), bias=False)\n","          (bn1): FrozenBatchNorm2d(256, eps=0.0)\n","          (conv2): Conv2d(256, 256, kernel_size=(3, 3), stride=(1, 1), padding=(1, 1), bias=False)\n","          (bn2): FrozenBatchNorm2d(256, eps=0.0)\n","          (conv3): Conv2d(256, 1024, kernel_size=(1, 1), stride=(1, 1), bias=False)\n","          (bn3): FrozenBatchNorm2d(1024, eps=0.0)\n","          (relu): ReLU(inplace=True)\n","        )\n","        (4): Bottleneck(\n","          (conv1): Conv2d(1024, 256, kernel_size=(1, 1), stride=(1, 1), bias=False)\n","          (bn1): FrozenBatchNorm2d(256, eps=0.0)\n","          (conv2): Conv2d(256, 256, kernel_size=(3, 3), stride=(1, 1), padding=(1, 1), bias=False)\n","          (bn2): FrozenBatchNorm2d(256, eps=0.0)\n","          (conv3): Conv2d(256, 1024, kernel_size=(1, 1), stride=(1, 1), bias=False)\n","          (bn3): FrozenBatchNorm2d(1024, eps=0.0)\n","          (relu): ReLU(inplace=True)\n","        )\n","        (5): Bottleneck(\n","          (conv1): Conv2d(1024, 256, kernel_size=(1, 1), stride=(1, 1), bias=False)\n","          (bn1): FrozenBatchNorm2d(256, eps=0.0)\n","          (conv2): Conv2d(256, 256, kernel_size=(3, 3), stride=(1, 1), padding=(1, 1), bias=False)\n","          (bn2): FrozenBatchNorm2d(256, eps=0.0)\n","          (conv3): Conv2d(256, 1024, kernel_size=(1, 1), stride=(1, 1), bias=False)\n","          (bn3): FrozenBatchNorm2d(1024, eps=0.0)\n","          (relu): ReLU(inplace=True)\n","        )\n","      )\n","      (layer4): Sequential(\n","        (0): Bottleneck(\n","          (conv1): Conv2d(1024, 512, kernel_size=(1, 1), stride=(1, 1), bias=False)\n","          (bn1): FrozenBatchNorm2d(512, eps=0.0)\n","          (conv2): Conv2d(512, 512, kernel_size=(3, 3), stride=(2, 2), padding=(1, 1), bias=False)\n","          (bn2): FrozenBatchNorm2d(512, eps=0.0)\n","          (conv3): Conv2d(512, 2048, kernel_size=(1, 1), stride=(1, 1), bias=False)\n","          (bn3): FrozenBatchNorm2d(2048, eps=0.0)\n","          (relu): ReLU(inplace=True)\n","          (downsample): Sequential(\n","            (0): Conv2d(1024, 2048, kernel_size=(1, 1), stride=(2, 2), bias=False)\n","            (1): FrozenBatchNorm2d(2048, eps=0.0)\n","          )\n","        )\n","        (1): Bottleneck(\n","          (conv1): Conv2d(2048, 512, kernel_size=(1, 1), stride=(1, 1), bias=False)\n","          (bn1): FrozenBatchNorm2d(512, eps=0.0)\n","          (conv2): Conv2d(512, 512, kernel_size=(3, 3), stride=(1, 1), padding=(1, 1), bias=False)\n","          (bn2): FrozenBatchNorm2d(512, eps=0.0)\n","          (conv3): Conv2d(512, 2048, kernel_size=(1, 1), stride=(1, 1), bias=False)\n","          (bn3): FrozenBatchNorm2d(2048, eps=0.0)\n","          (relu): ReLU(inplace=True)\n","        )\n","        (2): Bottleneck(\n","          (conv1): Conv2d(2048, 512, kernel_size=(1, 1), stride=(1, 1), bias=False)\n","          (bn1): FrozenBatchNorm2d(512, eps=0.0)\n","          (conv2): Conv2d(512, 512, kernel_size=(3, 3), stride=(1, 1), padding=(1, 1), bias=False)\n","          (bn2): FrozenBatchNorm2d(512, eps=0.0)\n","          (conv3): Conv2d(512, 2048, kernel_size=(1, 1), stride=(1, 1), bias=False)\n","          (bn3): FrozenBatchNorm2d(2048, eps=0.0)\n","          (relu): ReLU(inplace=True)\n","        )\n","      )\n","    )\n","    (fpn): FeaturePyramidNetwork(\n","      (inner_blocks): ModuleList(\n","        (0): Conv2dNormActivation(\n","          (0): Conv2d(256, 256, kernel_size=(1, 1), stride=(1, 1))\n","        )\n","        (1): Conv2dNormActivation(\n","          (0): Conv2d(512, 256, kernel_size=(1, 1), stride=(1, 1))\n","        )\n","        (2): Conv2dNormActivation(\n","          (0): Conv2d(1024, 256, kernel_size=(1, 1), stride=(1, 1))\n","        )\n","        (3): Conv2dNormActivation(\n","          (0): Conv2d(2048, 256, kernel_size=(1, 1), stride=(1, 1))\n","        )\n","      )\n","      (layer_blocks): ModuleList(\n","        (0-3): 4 x Conv2dNormActivation(\n","          (0): Conv2d(256, 256, kernel_size=(3, 3), stride=(1, 1), padding=(1, 1))\n","        )\n","      )\n","      (extra_blocks): LastLevelMaxPool()\n","    )\n","  )\n","  (rpn): RegionProposalNetwork(\n","    (anchor_generator): AnchorGenerator()\n","    (head): RPNHead(\n","      (conv): Sequential(\n","        (0): Conv2dNormActivation(\n","          (0): Conv2d(256, 256, kernel_size=(3, 3), stride=(1, 1), padding=(1, 1))\n","          (1): ReLU(inplace=True)\n","        )\n","      )\n","      (cls_logits): Conv2d(256, 3, kernel_size=(1, 1), stride=(1, 1))\n","      (bbox_pred): Conv2d(256, 12, kernel_size=(1, 1), stride=(1, 1))\n","    )\n","  )\n","  (roi_heads): RoIHeads(\n","    (box_roi_pool): MultiScaleRoIAlign(featmap_names=['0', '1', '2', '3'], output_size=(7, 7), sampling_ratio=2)\n","    (box_head): TwoMLPHead(\n","      (fc6): Linear(in_features=12544, out_features=1024, bias=True)\n","      (fc7): Linear(in_features=1024, out_features=1024, bias=True)\n","    )\n","    (box_predictor): FastRCNNPredictor(\n","      (cls_score): Linear(in_features=1024, out_features=2, bias=True)\n","      (bbox_pred): Linear(in_features=1024, out_features=8, bias=True)\n","    )\n","  )\n",")"]},"metadata":{},"execution_count":47}]},{"cell_type":"code","source":["def show(img,boxes,ax,color=(255,0,0)):\n","    boxes=boxes.detach().cpu().numpy().astype(np.int32)\n","    sample=img.permute(1,2,0).numpy().copy()\n","\n","    for box in boxes:\n","        cv2.rectangle(sample,(box[0], box[1]),(box[2], box[3]),color, 3)\n"
…
